models/digit_model.pth (torch, 35506 bytes, 10 tensors)

block_1.0.weight f4 [10, 1, 3, 3]
00000000: 0b5d ed3e 6fdf 083f 753c d3bb ab63 283f
00000010: c55a f43e 2f3b ad3e 030c b3bd 0bf6 1b3f
00000020: 11f7 143f 3c00 2abe 937f 043f 236e 713e
00000030: e109 0b3f b28a 153f 52ad fd3e a4b8 e53d
00000040: e1ad 353f 554b c93e bb4a 8cbe 785e a6bc
00000050: 6d5d a5be 9956 31be e955 79be 2719 003d
00000060: 7586 97be 8ea1 47be 0788 2ebe 707d 62be
00000070: af75 39be 1149 03bf 4bd5 903e fe8c e9be
00000080: 5887 313e d4db 8e3e 4dac a73c 3f18 ab3e
00000090: 79a6 513e d42f 033f 3c3d 2d3e b7a0 903d
000000a0: 30a4 043f e13a 013e 72d0 293e 6dbe 1d3f
000000b0: 563b cc3e bbf0 00be 6d91 4f3e c12b 873d
000000c0: aeb7 373e 574f 47be 6b49 adbe 3d78 f1bd
000000d0: 853f 80be ac28 983e 3506 8e3e 7c09 bd3e
000000e0: e056 8d3e 4d12 2d3e 140f 003f 2fb7 2abe
000000f0: cca8 b3bd eddf 68be 18e8 573d 0f43 01be
00000100: 0cab b63d 7420 aabd 31a6 8a3e c584 4dbe
00000110: 6470 69be b08c 7bbe 2887 803e b160 903d
00000120: 87f2 aa3e 561c 95be fb52 8bbe fa33 81be
00000130: f2e5 84be 6841 4f3e 2bfd 453e 0827 be3e
00000140: 1a83 b5bc fc60 6dbe 7222 413e 4bc7 01be
00000150: 0c27 523e d6e5 8ebd a14c 4f3e c6a6 84be
00000160: f497 2bbe 8ebd dc3d
0.4636005 0.5346593 -0.006446416 0.6577708 0.47725502 0.33834216 -0.087425254 0.60922307
0.58189493 -0.16601652 0.5175716 0.2357717 0.5431195 0.5841476 0.49546295 0.11216858
0.70968443 0.39315286 -0.27400765 -0.020308718 -0.3229784 -0.1731819 -0.24349178 0.031273987
-0.2959477 -0.19495222 -0.17044078 -0.22118163 -0.18111299 -0.51283365 0.2828773 -0.4561538
0.17336786 0.2790209 0.020467902 0.33416936 0.2047366 0.51244855 0.1691789 0.07061904
0.5181303 0.12620117 0.16583422 0.6161869 0.3988902 -0.12591831 0.2027032 0.06600142
0.17941162 -0.1946386 -0.33845076 -0.11790512 -0.25048462 0.2971853 0.2773911 0.36921299
0.27605343 0.16901512 0.5002301 -0.16671441 -0.0877243 -0.22741671 0.052711576 -0.12623237
0.08919343 -0.08306971 0.2707992 -0.20070179 -0.2279678 -0.24565387 0.25103116 0.070496924
0.3338816 -0.2912318 -0.27211747 -0.25234967 -0.25956684 0.20239794 0.19334857 0.37139153
-0.02215724 -0.23181528 0.18860796 -0.1267368 0.20522708 -0.069774315 0.20244075 -0.25908488
-0.16757184 0.10778342

block_1.0.bias f4 [10]
00000000: ab3e 373e c71f 043e 4017 b03e 1586 8e3e
00000010: 6e95 993c 01fc 22be 3539 db3e e2d4 f5bd
00000020: 57ca cabc a095 9ebe
0.17895 0.12902747 0.34392738 0.2783667 0.018748011 -0.15916444 0.42817083 -0.12003495
-0.024754686 -0.3097353

block_1.2.weight f4 [10, 10, 3, 3]
00000000: 0a96 0b3e a435 893e 86a0 653e 337c e2bd
00000010: ffda febc 77dd 0abc 4290 70be 8c4c 61be
00000020: e3b5 2ebe cbae a13d efef 863e e40e 4f3e
00000030: f6e0 38bd 4076 38be 9d1f 03bc 6d5b 3abe
00000040: 6e5b 01be 8e3c 30be 9d15 82bd 6608 94bd
00000050: a1f9 d2bc 03a1 bebc f63b e73b 7e62 67bd
00000060: 4bd7 53bd c7e9 f8bc 9b0c 99bc 04d2 e0bd
00000070: 9c5f bb3d d948 96bc 28de c83d eb3e f13c
00000080: 7b65 b9bd 1d8c 053e 4895 8b3c 508f a8bb
00000090: 6657 dd3c 68e2 f53b 6c07 403e d8aa 85bd
000000a0: cfa7 6fbc aea8 84bd ea16 4bbc c685 2bbe
000000b0: 883a 09bd 9c63 b83c 7e99 693d eb81 af3d
000000c0: 3d22 c93d c6f2 a8bd 8838 fd3c cfa8 0abd
000000d0: decf d4ba e83c 82bd f5e8 893e de0d 0d3d
000000e0: eaa3 1b3e 1e08 e23d a57e e23d e204 2a3d
000000f0: b65f b03d 595b 063c cb79 6b3d 5f1b bcbd
00000100: 729a 423d 792e 8fbc 7299 46bd 67eb b43d
00000110: c63e 9e3c 7624 5cbd 2432 48bd 8b14 15ba
00000120: 47fa 5a3d 7867 c9bc 8c0b 09bd 0ad9 0ebd
00000130: b910 a0bd ff20 213d 4341 be3d 27d8 b2bd
00000140: 3397 e13c bbf8 603d 6ac5 a53c cce9 19bd
00000150: c00f 623d f1db 603d f999 253d 5959 99bc
00000160: 80c7 ecbc a12f 283c 5a76 213d 8795 27bc
00000170: c2ad 233d 9452 1f3e 8776 053c 7393 2ebd
00000180: 8975 b33b 912e 23bd c6eb a7bc 4367 c33d
00000190: e13f 92bd e8cf 70bd f9fe 133e f395 fe3c
000001a0: 7a76 3dbd 97d6 bbbd fa06 fdbd 5c4e 1ebe
000001b0: a5f6 12bd 80f7 193d 05cd 983d 8b9e 363d
000001c0: b7bb bdbd 3eb4 65bd d0bc 9bbc a5d7 df3d
000001d0: 82c4 f73c a6f5 aebc 8a57 693d ce7a ddbc
000001e0: d16e 97bd 8555 8b3d fb4f 31bd a763 d3bc
000001f0: 47d5 e6bd 3642 8a3d 2db6 ff3d cbaa 213d
00000200: b086 cebd 7f9b 92bd 9393 b4bd 3a77 4a3d
00000210: 6e65 1f3d a871 3f3d 68be 623c e12b d53c
00000220: 11f5 b9ba 9f87 a5bd 6312 b7bd 0084 c8bd
00000230: b3c0 373d 127a 50bd cfa8 a3bc 1001 76bd
00000240: b11c 1c3b 9c48 80bd 52a4 75bd f444 b43d
00000250: f84a ea3b d954 923d 944d a53b 1800 90bd
00000260: 9917 d5bc e5cd 5abd 9d39 09bd ab06 cebd
00000270: a15a 703d da01 99bd 552c 5c3d 133e 403d
00000280: 0ccb 983d 6e3b a8bd 0a60 9b3d 079f 4cbd
00000290: 6580 fc3c 6541 c13d c6e9 8cbc ceb0 1bbb
000002a0: c1d9 88bc ba5b b7bd 85d5 5b3d 7f5a d6bd
000002b0: 2e1d 863d 2242 a13d 8f3f cc3d a505 ccbc
000002c0: d983 b1bd 4fa2 c23c eda1 6e3d 09ef d6bd
000002d0: 4bb0 c0bc 5ad1 80bd 3eef 15bc 3320 54bd
000002e0: 1f43 30bd e2ba 08bd 1680 ccbd a396 b13d
000002f0: 15a4 b53d 9a3f 85bc f43f 45bc 2afa 2fbd
00000300: c6d9 c2bd 2fff d1bd 35c1 203d 888b 6bbd
00000310: 564c 8abd a6c1 01bc aac0 0fbd 3905 0cbd
00000320: 3127 603b f9a9 b6bc 386a 14bd 0688 4ebd
00000330: 16ba afbd b90f b53d a2cb 2cbd d8bb e43c
00000340: 4321 16bd 63ef 0c3c b66d c93d 2f37 473d
00000350: 64ed babd e602 2c3d a473 cd3d 22ab e43c
00000360: 1865 913d 210f d53d 1c24 84bc e770 b33c
00000370: 6500 96bd c299 b1bc 7487 a03d 7638 5e3d
00000380: ae25 88bd 141c adbd f185 93bd 970b d5bd
00000390: 7794 a6bd f888 d5bc 84b7 913d 5f6d 903c
000003a0: 2b2d a4bd c02e adbd b306 583d d926 a0bd
000003b0: c787 53bc 5588 4f3d ba6c 47bd f549 3abc
000003c0: 2e0a 16bc 0682 cbbc 76b2 5abd 3971 c0bd
000003d0: b281 aebd 5f30 67bd 978f d03d 5c8b 50bd
000003e0: e4f7 90bd 9d7e d13c be97 ed3c c5c7 6c3d
000003f0: 2ddf a33d 2716 713d ee0a d6bd 9e33 193c
0.13631454 0.26798737 0.22424516 -0.11058845 -0.031110285 -0.008475653 -0.2349253 -0.22001857
-0.17061572 0.07894667 0.2635493 0.20220524 -0.045136414 -0.18013859 -0.008003143 -0.18198939
-0.12632534 -0.172106 -0.06351779 -0.072281644 -0.025753798 -0.023270136 0.0070567084 -0.056490414
-0.05171899 -0.030384911 -0.018682769 -0.10977557 0.091490954 -0.018345283 0.09807998 0.029448947
-0.09052559 0.1304173 0.017038956 -0.0051440373 0.027019214 0.0075037964 0.18752831 -0.065267265
-0.014627411 -0.064774856 -0.0123956 -0.1675025 -0.033503085 0.022508435 0.057031147 0.08569702
0.098209836 -0.0824943 0.030910745 -0.033852395 -0.0016236266 -0.06359273 0.26935545 0.034437053
0.15199247 0.110367045 0.11059312 0.041508563 0.086120054 0.00820049 0.057489198 -0.09184908
0.04751057 -0.017478215 -0.04848618 0.08833962 0.019317042 -0.05374571 -0.048875943 -0.000568696
0.05346134 -0.02458547 -0.033458278 -0.034874953 -0.078156896 0.03933811 0.092897914 -0.08732634
0.027537918 0.054924708 0.020235736 -0.03757648 0.0551908 0.054897252 0.040430043 -0.018719362
-0.028903723 0.010265262 0.03941951 -0.010228521 0.03996063 0.15558845 0.008145935 -0.042621087
0.0054766578 -0.03983933 -0.020498168 0.0954118 -0.0714109 -0.058792025 0.14452733 0.03107736
-0.046255566 -0.09171789 -0.12354846 -0.15459579 -0.03587975 0.03758955 0.07460979 0.044584792
-0.092643194 -0.056080095 -0.019010931 0.10929803 0.03024507 -0.021357369 0.05696825 -0.027036097
-0.073941834 0.06803421 -0.043289166 -0.025804354 -0.11271148 0.0675091 0.12485919 0.03946952
-0.10084283 -0.07158565 -0.0881721 0.04943011 0.03891509 0.04673925 0.013839342 0.0260219
-0.0014187415 -0.08082508 -0.08939054 -0.09790802 0.044861507 -0.050897665 -0.019977955 -0.060059607
0.0023820812 -0.06263849 -0.05997116 0.08802214 0.0071500503 0.0714509 0.0050446484 -0.07031268
-0.026012229 -0.053419013 -0.03350221 -0.100598656 0.05868018 -0.07471056 0.053753216 0.0469342
0.07460603 -0.0821446 0.07586677 -0.049956348 0.030822942 0.09436301 -0.017201316 -0.0023756507
-0.016705396 -0.08953042 0.053670425 -0.104664795 0.06548534 0.07873942 0.0997306 -0.024905035
-0.08667726 0.023759035 0.058259893 -0.10494811 -0.023521563 -0.06289931 -0.009151278 -0.05178852
-0.04303276 -0.03338135 -0.09985368 0.0867131 0.08869187 -0.01626568 -0.012039173 -0.042963184
-0.09514193 -0.102537505 0.039246757 -0.057506114 -0.06752841 -0.007919705 -0.03509585 -0.03418467
0.0034203047 -0.022297846 -0.03623411 -0.05042269 -0.08580415 0.088408895 -0.042186387 0.027921602
-0.036652815 0.008601996 0.09835379 0.04863661 -0.0912731 0.04199495 0.10031822 0.027913634
0.0709936 0.10403276 -0.0161305 0.021904422 -0.07324294 -0.021679763 0.07838336 0.054253064
-0.06647812 -0.08452621 -0.07203282 -0.10402601 -0.08133786 -0.026066288 0.07115081 0.017630277
-0.080164276 -0.084561825 0.052740764 -0.078199096 -0.01291079 0.050667126 -0.048687674 -0.011370172
-0.0091577 -0.024842273 -0.05339285 -0.093965955 -0.08520831 -0.056442615 0.101836376 -0.050914153
-0.070785314 0.02557307 0.02900302 0.057807703 0.08001552 0.058859017 -0.104513034 0.009350685

block_1.2.bias f4 [10]
00000000: a647 fe3d acc5 cfbc efac 5ebd eab3 bfbc
00000010: 9390 bfbd 750d ec3b 46a6 acbc 7875 803d
00000020: 9d36 24bd e670 613d
0.124160096 -0.025362812 -0.05436414 -0.02340122 -0.09353747 0.0072037526 -0.02107538 0.062724054
-0.040091146 0.05503931

block_2.0.weight f4 [10, 10, 3, 3]
00000000: a3f7 87bc 5aef 53be 2d14 00be 912b a1bc
00000010: a5a5 aabc 9d59 d83c e0ac 9dbd 4d08 113d
00000020: d2db 973d a57a 423d bb5b cbbd 9b4e 09bd
00000030: 2149 c8bd ac9b 8cbd 561c 993d c582 9cbc
00000040: 415b 3e3d ca91 4dbd 693a 833c b08f 82bd
00000050: 80d2 573d ebd5 3cbd 2b8a d8bc db4d bbbd
00000060: 2a44 b939 f4f7 cc3d 798e 513d 2e63 32be
00000070: ef61 b2bb a597 df3b 141a 8bbe 9d8c a63c
00000080: 8a0b 153e 6e69 a5bd be9a 42be 574b 59bd
00000090: 0791 14be 3ed7 313d a03c b7bd 4edd 13be
000000a0: 084b 5d3e ee3f 213e 2795 a6be 63e7 55be
000000b0: 04d3 bc3e e980 03bd e6c9 e7bd 7a34 26be
000000c0: 47e6 abbb 82be 52bd cc7f c8bd e234 7d3d
000000d0: 5326 e83d 9efd 3e3e 589b 37be 8778 3b3d
000000e0: c687 c3bc 9d90 81bd 5604 073e 4ab5 623e
000000f0: 8a40 f7bc 232c f2bb dbfe 90bb 0b19 37bd
00000100: 16ee 30bd 4305 d5bc 4646 01be 96e5 a03d
00000110: c0dc f63d f76b 19be a7c5 18be 5ef9 f73d
00000120: 9943 46be b663 72bd 1c01 083e e513 b3bd
00000130: 16bf 1a3e 2142 7e3e 0b93 33be 27cb 46be
00000140: cbd7 78bb 52e1 41bc fc79 68bd f09e 373d
00000150: a698 203d 3f94 f23c f493 c83b 7bf1 42bc
00000160: 7159 42bd 6164 003e 8986 b7bd ef33 c2bd
00000170: 5602 1abe 3675 503e 4fc9 323d c18a ea3d
00000180: 8507 ebbb ba14 6ebd 968e 77bd 8a3d 183d
00000190: a008 7ebd e6eb 03be 58a2 51bd d0a8 813d
000001a0: 0b25 44bd 73b2 133d 78a7 25bd d9cd 993d
000001b0: 2f38 813d 9276 183d aba9 5cbd 8664 b0bd
000001c0: 641d 823b f24c 7dbd fc7c b13d 4173 cfbd
000001d0: 8be7 403d 4a8e 403e d883 583e 658b 543e
000001e0: 3a2e 54be 8e97 bbbc 3538 143e 858a d0bd
000001f0: 02e3 d5bd 68a7 7bbd 7841 e1bd 0f6e 343e
00000200: d72d ce3d 5b6b 09be e7b8 1c3e 373f 783e
00000210: 2f8d 23be 00a3 d2be 18ce 073e 1276 4ebd
00000220: 3910 1cbe 4d22 2fbe a880 113e 97f7 483e
00000230: f02d 393d 00b1 123d 58ba cabc 31a2 193d
00000240: 2425 0abe d9cf 423c 43dd 2e3e 59b1 a53d
00000250: cd84 ecbd d457 2b3e bda4 94bb 903b 02be
00000260: 51be 353d c027 763d 55c1 1b3d b98d 313e
00000270: deba f1bd ff6c f43d fcfd 653e 1662 9fbd
00000280: 0a71 82be b047 543d 5fec 1dbe f895 f7bc
00000290: e72c 263e 32b9 7f3d 9309 b8bc c89a ef3d
000002a0: d34d 8f3b 02b2 7ebe f76e 41bd 56ee cb3c
000002b0: bcf6 8db9 9a68 6b3d ee43 1bbd 5d70 6ebd
000002c0: ee04 773d a776 f6bd d095 c7bd 7ab3 a13d
000002d0: b94b 513c b445 cbbd 89b7 a93c 81d4 64bd
000002e0: 6bf5 4bbe b79c 12bd da9f 06be cc0c 1ebe
000002f0: 35c2 0ebe a4f1 17bd 5e2b 5abd 3192 4bbd
00000300: 912d 18bd 4768 bd3d 26e4 5fbd 36ea a7bd
00000310: dbf7 7d3d eff4 13bc fd5a a53d 9ce8 863d
00000320: e54f c63d 8414 9ebd 9bcf 8a3d 502f b53d
00000330: 2f31 55bd 126f c63d 42ce a13d 004e b3bd
00000340: 98e7 42bd 5fa8 ac3c 9ca8 b0be 6e4d b7bd
00000350: dddc 743e 12c5 cabd 4d0c b3bb db2c 19be
00000360: 77ab 113e 8d2f d83d 3fa9 bc3b bb06 cabe
00000370: 3de1 c43e 0aa5 2f3e bc0b c8bd 7e88 c33d
00000380: a3b3 9fbc 8d60 4a3d e5dd 58be 6cae fbbd
00000390: d9e8 a9ba d687 3f3b 2cbb a6bb 27ab 52bd
000003a0: 1578 c6bc 3ad0 e2bd d596 493e b2b7 bcbd
000003b0: 6e44 abbd fe08 19be 82d5 bdbd 8053 ae3e
000003c0: 8b7b 14be e43f 733c 135b e53d 4187 f43c
000003d0: 3d8c 1d3d e58a 5b3d a570 28be 0e63 1d3e
000003e0: 4697 ae3e b268 51be 3497 cbbd a46f 623e
000003f0: 4181 80bc 6724 47be cc19 453e f9f2 08be
-0.016597575 -0.20696774 -0.12507696 -0.019674094 -0.020830939 0.026409918 -0.07698989 0.035408307
0.07414974 0.047480244 -0.099296056 -0.03352223 -0.09779573 -0.068656296 0.07476108 -0.019105325
0.046473745 -0.050187863 0.016019063 -0.063750625 0.052690983 -0.046102446 -0.026433071 -0.09145709
0.00035336736 0.10008231 0.051161263 -0.17420647 -0.0054438035 0.0068234974 -0.27168334 0.020330722
0.14555183 -0.0807675 -0.19004342 -0.053050365 -0.14508449 0.04341816 -0.0894711 -0.1443989
0.21610653 0.15747043 -0.3253567 -0.20889048 0.36879742 -0.03210536 -0.11317806 -0.16230956
-0.005245957 -0.051451214 -0.0979 0.06181801 0.11335435 0.18651435 -0.17930353 0.04576924
-0.023868453 -0.06326411 0.13185248 0.22139469 -0.030182142 -0.0073905154 -0.0044249124 -0.044701617
-0.043195806 -0.026003486 -0.12624463 0.0785629 0.120538235 -0.14982592 -0.14919148 0.1210811
-0.19361724 -0.059177123 0.13281673 -0.08744029 0.15111956 0.24829914 -0.17536561 -0.19413434
-0.003797042 -0.011833506 -0.05675696 0.04482931 0.039208077 0.029611705 0.006121153 -0.011898394
-0.04744858 0.12538292 -0.089612074 -0.09482562 -0.15039954 0.20357212 0.043649014 0.114522465
-0.0071725273 -0.058125235 -0.060438715 0.037168063 -0.062019944 -0.12882957 -0.051180214 0.063310266
-0.04788689 0.036058854 -0.040442914 0.075099654 0.06309544 0.037222452 -0.053872745 -0.08612923
0.003970789 -0.06184096 0.08666417 -0.10129405 0.047095817 0.18804279 0.21144044 0.207563
-0.20720759 -0.022899415 0.14474566 -0.101826705 -0.10443689 -0.061438948 -0.10998815 0.17620109
0.10067337 -0.13419859 0.1530491 0.24242865 -0.15971826 -0.41139984 0.13262212 -0.05040557
-0.15240563 -0.17102928 0.14209235 0.19625698 0.045209825 0.03581333 -0.024747059 0.037508193
-0.1349073 0.011890375 0.17076592 0.08090467 -0.11548767 0.16732723 -0.00453624 -0.12718034
0.044370953 0.060096502 0.038026173 0.17339219 -0.1180322 0.11934852 0.22460169 -0.0778238
-0.25476867 0.05182618 -0.154222 -0.030222878 0.16228066 0.062432475 -0.022465503 0.11699444
0.004373291 -0.24872592 -0.047224965 0.02489392 -0.00027077447 0.057472803 -0.03790658 -0.058212627
0.060307436 -0.1203435 -0.09745371 0.078955606 0.012774401 -0.09925404 0.0207174 -0.055866722
-0.19917838 -0.035793986 -0.13146916 -0.15434569 -0.13941272 -0.03709568 -0.053264014 -0.049699966
-0.03715283 0.09248405 -0.05466094 -0.08198969 0.06200395 -0.009030565 0.08073995 0.065873355
0.096832074 -0.07718757 0.06777879 0.08846915 -0.05204886 0.09689154 0.07900669 -0.08755112
-0.047584146 0.02107638 -0.3450364 -0.089503154 0.23912378 -0.099008694 -0.005464113 -0.14958517
0.14225565 0.105559446 0.0057574804 -0.3945826 0.38453093 0.17152801 -0.09767863 0.09547518
-0.019494837 0.049408484 -0.21178396 -0.12289128 -0.0012963071 0.0029225252 -0.0050882306 -0.051432755
-0.024227181 -0.11074872 0.19686444 -0.092147246 -0.08362661 -0.14944836 -0.09269239 0.3404808
-0.14500253 0.014846776 0.11199012 0.02984965 0.03846382 0.053599257 -0.1644922 0.15369818
0.34099787 -0.20450094 -0.09940949 0.221129 -0.015686633 -0.1944748 0.19248122 -0.13373937

block_2.0.bias f4 [10]
00000000: d20c 8bbd 7076 c1bc 3d92 093e 99ab c6bd
00000010: 1ce3 c9bd cbb2 a13e be67 aa3d 2b9e 2b3d
00000020: b237 a63e 2cbe 853d
-0.06789555 -0.023616046 0.13434692 -0.097006984 -0.09857771 0.3158172 0.083205685 0.041898888
0.32464367 0.06530413

block_2.2.weight f4 [10, 10, 3, 3]
00000000: 07b7 a6bd 0f95 efbc 9e8f 023d eeec 11be
00000010: ea1b 793d 2feb 223d 8d9e 0f3e 3282 143c
00000020: 62b1 bc3d 36f5 83bd 07e7 193c aba4 9dbd
00000030: a2d1 1ebe fae8 533c cdfa 3bbe 4c92 293e
00000040: 57a7 403e 9ec3 96be ca55 c53d 6531 c23d
00000050: bc7f d1bc 7eca 55be 71f2 4b3e 59da 4bbe
00000060: 4648 b43d 5dea 763e d3c7 febe bae7 adbd
00000070: c069 d03d 4fb6 81bd 4c9b 9bbd abac abbb
00000080: 81e8 0abd 0945 6cbc a1a5 90bd 77da 1b3d
00000090: 4947 babd 1faa 063c 4862 793d 1fe8 a63c
000000a0: 15c1 663c fe6a 7b3c 63f7 fdbc f6e9 a4bc
000000b0: 7209 37bd 8287 2cbe 443b 6bbe 6714 8dbd
000000c0: 750c ac3d 679d 3e3e 8074 c03e 7127 193d
000000d0: e2ea 483e 6e9b 443d 1fe0 bcbe a984 6dbc
000000e0: 0859 75bd 0d93 4abe e4bc 1f3e a2f0 873e
000000f0: 4d02 47be 4728 c23c 41f0 923e ee74 3bbe
00000100: de22 263d 8df0 523d 04cd c4bd f6bc 7abc
00000110: 19e7 21be b2a1 dfbd 286c 853d d25f 70be
00000120: 70df 2dbe 581b 3dbe 90b9 823d 2508 b6bd
00000130: 79fe 9f3d b8d5 703e 9ee0 04be 3f36 8abe
00000140: c184 f7be a171 9dbe 19eb 0d3d 085e 87be
00000150: cd86 9ebe 1872 1bbd 77f6 99bd fdf2 1abe
00000160: fba5 5b3e 7e2b 413d e81e 74bd 726f 3abe
00000170: f482 47be 68b3 32be d0e0 2fbe 5c31 65be
00000180: ef05 e53d 2652 3b3e 945e df3d 7542 2abd
00000190: c777 d33d 1410 873d ffa9 bebd a88b a4be
000001a0: 174d 5cbe 216e a5bd c4b0 c6bd 445d b53c
000001b0: 83e0 92bd 2f1b 803d 31dd 953d 8f6b d2be
000001c0: 3df5 05be 0cb4 6fbd 26e6 babd 0892 433e
000001d0: f0c5 6d3e 24ab b0bd 4837 243d 4ebe 983d
000001e0: 5295 093c 518b 9abd 38ec a3bd 5e21 28bd
000001f0: 860a fc3c 5c22 273b 32e6 9c3c c59f cb3d
00000200: 18d9 4f3d 0f43 b43c 9d09 a3bc afd4 443d
00000210: c012 1f3d 3316 c4bd f0cb 7dbd 75b3 ce3e
00000220: 3a98 b63e 6ef3 34be c85b b5be 47dd b4be
00000230: fc9f ca3c 7f1e c1bd df03 ab3e 1331 1b3e
00000240: 33d9 0ebd 266c 643e d0e5 613e 2fec 6bbd
00000250: 29a7 07be 421b cbbd 42ff 2e3c c285 a53e
00000260: 9ea0 9b3b 339c 3ebd ebd3 1abe e1f2 cebe
00000270: 671a ac3d 8086 6d3e e85d 123e a29e 7a3c
00000280: 2fea 5bbe cc73 e13d fcbc a4bd 1a4d 983e
00000290: d179 18bd a443 c2bb c028 6bbe 10fd 00bf
000002a0: ac5c eabe 74c9 153d a73c 5e3e 3222 b93c
000002b0: 98a5 02bd d0c0 79bd 2500 4ebe d542 afbe
000002c0: cd49 21bd 955c 123e 6e8c 123e d9ac 9cbd
000002d0: f3d9 243e db78 093e 86c3 25be bcae abbd
000002e0: cad1 093e 2415 373e 07a6 09be 783a e1bd
000002f0: bae7 06be e1c6 323e f673 963e 1928 aabe
00000300: fac3 c4bd 3d72 053e 2afe 1d3d d48d 9bbe
00000310: f279 08be 158c 8fbc fc08 3a3e eb38 db3e
00000320: 2921 8ebe 2e29 883c d074 913e 666c 1d3e
00000330: ce51 ecbd 5e7d 97be 38cf 0f3e c205 a8bd
00000340: 689f 9e3d e8ac 643d 809f 8a3d 74b2 04bc
00000350: 8812 a1bd a6fe 993d 9ec9 3cbd 7533 e33c
00000360: d2c1 723d 33d3 c9bd 9be8 db3b f8be 18bd
00000370: 270d 9a3d 726c 8cbd 3832 823d 00d3 873d
00000380: 6c7a 6c3d f021 f13d 7484 703d c386 d7be
00000390: b826 1a3e e57c debd 1713 86be 6591 f7be
000003a0: 9cbe a5bd 26c5 27be bc3c bbbc b7aa 143e
000003b0: cc2e d3bd c977 2d3d 0464 863d 16af bbbd
000003c0: cd66 e6be a47c 85bd 8518 bb3d 1ec1 81be
000003d0: 1a32 a73e 5dd8 cc3d bff8 b6be ed7b d4bd
000003e0: cf7e c03e b09f e7ba 9dae 06be 7979 99be
000003f0: 983b 843d 5df1 80be d554 87be 8691 49bd
-0.081403784 -0.029245881 0.031875245 -0.14250538 0.060817637 0.03977507 0.14025326 0.009064244
0.092135206 -0.06443255 0.00939346 -0.076974235 -0.15509656 0.012933964 -0.18357392 0.16559714
0.18813835 -0.2944612 0.096355036 0.094820775 -0.025573604 -0.20878026 0.19916703 -0.19907512
0.088028476 0.2411284 -0.4976183 -0.08491464 0.1017642 -0.06333601 -0.0759798 -0.0052390895
-0.03391314 -0.014420756 -0.07062841 0.03805014 -0.09095628 0.008219271 0.060884744 0.020374356
0.01408412 0.015345333 -0.031001752 -0.020131093 -0.044686742 -0.16848567 -0.22971827 -0.06888657
0.084008135 0.18614732 0.37588882 0.03739113 0.1962085 0.04799979 -0.3688974 -0.014496961
-0.05989936 -0.19782658 0.155994 0.26550776 -0.19434471 0.023700846 0.28698924 -0.18306324
0.040560596 0.05149894 -0.09609416 -0.015303841 -0.15810813 -0.10919513 0.0651477 -0.23474053
-0.16979766 -0.18467462 0.063830495 -0.08888272 0.07812209 0.23519027 -0.1297631 -0.2699451
-0.4834347 -0.30750754 0.034648035 -0.26438928 -0.3096222 -0.037950605 -0.075177126 -0.15131755
0.21450035 0.047160618 -0.059599787 -0.18206576 -0.19483548 -0.1745125 -0.17175603 -0.2238211
0.11182772 0.18293056 0.10906711 -0.041567285 0.1032558 0.065948635 -0.09309768 -0.321378
-0.21513782 -0.08077646 -0.09701684 0.0221392 -0.071717285 0.06255185 0.073175795 -0.41097686
-0.13081832 -0.058521315 -0.091259286 0.19098675 0.23220038 -0.086263925 0.040091783 0.07458173
0.008397417 -0.07546104 -0.080040395 -0.041047446 0.030766737 0.0025502658 0.019152734 0.09942583
0.050744146 0.022004632 -0.019902045 0.048054393 0.03883624 -0.09574547 -0.061962068 0.4037129
0.35663015 -0.17670986 -0.35421586 -0.3532507 0.02473449 -0.09429645 0.3340139 0.15155439
-0.034875106 0.2230688 0.22060323 -0.05759829 -0.1324736 -0.099173084 0.010680975 0.32328612
0.0047493717 -0.046535682 -0.15119903 -0.40419677 0.08403473 0.23195839 0.14293635 0.01529661
-0.21476053 0.110084146 -0.080438584 0.29746324 -0.03722555 -0.0059284735 -0.22964764 -0.5038614
-0.45773828 0.036569074 0.21702825 0.022599313 -0.031896204 -0.060974896 -0.20117243 -0.34230676
-0.039377023 0.1429313 0.14311382 -0.076501556 0.16098766 0.13425009 -0.16187868 -0.08382937
0.13458934 0.17879158 -0.1344224 -0.1099748 -0.13174334 0.17458679 0.29385346 -0.33233717
-0.09607692 0.1303186 0.038572468 -0.30381644 -0.13327768 -0.017522851 0.1816749 0.42816862
-0.27759674 0.016621199 0.28409433 0.15373382 -0.115390405 -0.29587835 0.14043891 -0.08204223
0.07745248 0.05582896 0.067687035 -0.008099187 -0.07864863 0.075192735 -0.046090715 0.027734498
0.059266873 -0.09854736 0.0067110783 -0.037291497 0.0752204 -0.06856622 0.06357235 0.06632042
0.057733938 0.11774051 0.058720067 -0.42095003 0.15053833 -0.108636655 -0.2618644 -0.48353115
-0.080929965 -0.163838 -0.022856109 0.14518248 -0.1031166 0.042350564 0.06562045 -0.09164254
-0.45000306 -0.06517914 0.09135536 -0.2534265 0.32655412 0.100022055 -0.35736653 -0.103751995
0.37596747 -0.0017671492 -0.13152547 -0.2997549 0.06456679 -0.25184146 -0.2643191 -0.049211048

block_2.2.bias f4 [10]
00000000: c1e7 4abb 68bf 39bd 9189 033e 028d 123e
00000010: 252b 22be 9005 363d 2367 863d 122c 7e3d
00000020: 878e 153e 9b9a fabd
-0.003096089 -0.045348555 0.12845446 0.14311603 -0.15836771 0.0444389 0.065626405 0.062053747
0.14605151 -0.1223652

classifier.1.weight f4 [10, 490]
00000000: 4531 0d3d fa97 a2bd acc8 1dbe a6cb 1d3d
00000010: 5bfb 92bd 8387 bdbc 5fb9 e43c fb52 4abd
00000020: 5593 96bd 2163 5fbc 2eb5 2dbe 9f43 4fbd
00000030: ca91 393d 0e7a 253c de9e 99bc ce3f 813d
00000040: 8a7c ee3d e63e fd3c bb1c 44be 9085 a5bc
00000050: 8829 2fbd 150d 923d a4bc 843e 76cc f23d
00000060: b60b 18be 9ae6 dfbd 6874 e43c 4f86 fcbc
00000070: 78c3 123d ab5a 3c3e 710e 263d 764d 5ebe
00000080: af01 823c d1b9 d83d 22e8 6cbd dbca 163d
00000090: b17f 2f3d c467 52be 467f 7d3d 2e90 90bd
000000a0: 98ee 84bc 41f5 f83c a5b7 283d 4a2a 98bc
000000b0: cb72 97bd 2b32 34bd e1fe f9bc 27da 00bb
000000c0: 911d 1dbc 3b1d 5f3c fce4 8cbc 81bf b9bb
000000d0: 5574 173c 6263 44bb afe9 38bb e5da 873d
000000e0: 5cb1 a33c 99bf 143d 59b0 2abc e7f8 86bd
000000f0: 7390 efbc 537c 153d a0b4 ec3c 8a1a 023c
00000100: 018b 42bd 8817 843c 8823 f23b 2609 83bd
00000110: 006e 2a3d 4ddd 21bc a44d 7cbc 1bc4 c3bd
00000120: 9f60 84bd 4a34 29bd 1d6c ea3c 18b0 95bd
00000130: 451f babd a2da 45bd e83f 2abe 04ac 46bd
00000140: 3398 90bd 0925 9db9 29e7 2c3d 002d 18bd
00000150: 80de 2fbd 5fe3 97bd 6a78 4bbe dc24 463e
00000160: 996a e83c 51de b83d 3742 43bd 2d01 db3c
00000170: c274 6dbc 6dec 183e e7e6 df3c 93b5 6e3d
00000180: b506 71bc 11fc 163c 25c0 533b bb88 8abc
00000190: 1b05 c03c 5d82 5fbd 08e7 90bd ee27 d13c
000001a0: 3bed 02bd a914 1d3c 6011 263d 5bf0 2ebc
000001b0: bddc d3bc 305a 093e 6be9 2dbd 0390 f63b
000001c0: 0cb9 1dbd 45d1 463d 788f 78bd 567c 533d
000001d0: b1ff 3a3d 8984 703e dfe7 473d 074e 67bd
000001e0: 5ace 48bc 1374 3ebe 2105 943d fc34 f83c
000001f0: f02f 953d aa57 b2bc 299e 52bd 3c38 81bd
00000200: 054b 8dbc 4d3a fbbd 8a37 093d 3b6b c2bd
00000210: 9ef9 123d eba7 f63d 668f 5bbd 9518 2b3e
00000220: a033 8f3e dc9e 9ebe 2152 17be b25a 4cbd
00000230: 45c3 a13c e6e6 d73d d60b 6b3e cb99 61bd
00000240: e015 9abe 533e 2dbe 5ed0 31bd ee72 22bc
00000250: 8bd5 8e3d 1705 92bd 39fb 9f3c e33e 223d
00000260: 4644 cbbb 5a20 a13d 42a3 dabc 36aa 153c
00000270: cb76 2c3d bb87 4d3c 2cd1 4abd b6d7 f2bc
00000280: d1f9 57bd bc9d 33bc 753e abbd eb59 08be
00000290: b6b1 1fbe 0c01 b7bc 56f4 a83c b525 7fbb
000002a0: bd9a 25be c8d5 76be 3dcd 53be 8e70 9e39
000002b0: 4524 a23d 7d1e 1d3d f72a 8ebd d4e4 46bd
000002c0: 97dc 9bbe 6e53 5fbe 82e3 b0bd a663 043e
000002d0: 2263 cbbc f66e a53b e323 2cbd 92f2 34be
000002e0: e1b9 343d db41 7e3d 5dda 003e f979 e63d
000002f0: 8cab ea3b 74ef 44bd 8374 dbbd 1cb7 11bc
00000300: 24dc 403d 5d5f 9a3d c3bc 7abb efef 4cbc
00000310: d624 b93c 0a80 4d3c 920b 3abd d24f 6b3d
00000320: 6b09 323c 8435 1a3e dd9d e83d 36c0 d6bc
00000330: 9f57 6e3d 81cc 973c a99b 0f3e b276 293e
00000340: a488 d93c f656 c23d 8987 673c 2ff6 4639
00000350: 2606 99bd c331 35bd cf77 00be 2e22 be3b
00000360: dbc6 b0bd 9bae 85bc 9c04 bcbc c0e5 863d
00000370: 8c6f 8d3c d2cc eebb 6d16 febd 39a1 bfbd
00000380: c091 293b c915 28bd 5abd ec3c 611b 1b3e
00000390: db4c b7bd 1a89 abbd b46f 0abb 4d0e 743d
000003a0: 4c99 303d d53f 043e effc ce3d a2b9 99ba
000003b0: a31a 0bbd 8d5b 9dbd da1c 083c fbc4 cc3b
000003c0: 5e4a 153d 7187 7e3d 420a 8c3c 99ec 2bbd
000003d0: 5384 14bd 543c 5bbd d755 41bd 0066 4ebd
000003e0: a6a2 523d 6386 b8bc 950c d9bb 90e5 5a3c
000003f0: 6859 833d acea ebbc bac2 aabc 37f2 033e
0.034470815 -0.079391435 -0.15408581 0.038524292 -0.071768485 -0.023135906 0.027920423 -0.049395543
-0.0735232 -0.013634474 -0.16963646 -0.050601598 0.04530505 0.010099901 -0.018752512 0.06310998
0.11644848 0.030913781 -0.19151585 -0.02020529 -0.042764217 0.071314014 0.2592517 0.11855404
-0.14848217 -0.10932656 0.027887538 -0.030825762 0.035830945 0.18393962 0.040541116 -0.21709237
0.015869943 0.10582317 -0.057838567 0.03681455 0.042846385 -0.20547396 0.061888956 -0.0705875
-0.016227052 0.030390384 0.041190762 -0.018574852 -0.07394942 -0.043993156 -0.030517044 -0.001966128
-0.009589569 0.013617809 -0.017199032 -0.005668581 0.009244044 -0.0029966463 -0.0028215458 0.06633548
0.019982032 0.036315534 -0.010418021 -0.06590443 -0.029243683 0.036495518 0.028894722 0.007940898
-0.047495846 0.016124502 0.0073894896 -0.06398229 0.04160881 -0.009879422 -0.01539937 -0.095588885
-0.064637415 -0.041309632 0.028616006 -0.07308978 -0.090879954 -0.048304208 -0.16625941 -0.04850389
-0.0706028 -0.00029972967 0.04221264 -0.03715229 -0.042936802 -0.074164145 -0.19870153 0.19349998
0.028371142 0.090267785 -0.04767057 0.02673396 -0.014493169 0.1493394 0.027331783 0.05827863
-0.014711072 0.009215371 0.0032310572 -0.016910901 0.023439934 -0.054567683 -0.07075316 0.025531735
-0.03196452 0.009587445 0.040543914 -0.010677422 -0.025862092 0.1341331 -0.042458933 0.0075244918
-0.038506553 0.04853942 -0.060683697 0.051632248 0.045654003 0.23488058 0.048805114 -0.056470897
-0.012256229 -0.18598966 0.07227541 0.030298702 0.07284534 -0.021770317 -0.051420365 -0.06309554
-0.017247686 -0.12266979 0.03350023 -0.09493109 0.035882585 0.120437466 -0.053603552 0.16708596
0.27969074 -0.30980575 -0.14777423 -0.04989118 0.019746432 0.10542087 0.22953734 -0.05507831
-0.30094814 -0.16918306 -0.043411605 -0.009915097 0.06974324 -0.07129877 0.019528972 0.039610755
-0.006203207 0.07867499 -0.026689176 0.00913482 0.042105477 0.012544568 -0.049515888 -0.029643875
-0.052728478 -0.0109629 -0.08361522 -0.13315551 -0.15595135 -0.022339366 0.020624321 -0.0038932387
-0.16172309 -0.24104989 -0.20683761 0.00030219968 0.07917074 0.038359154 -0.06941789 -0.04855807
-0.30441734 -0.2180917 -0.08637144 0.12928638 -0.024827544 0.005048628 -0.04202641 -0.17670658
0.04412258 0.062074523 0.12583299 0.11253733 0.0071615633 -0.048079923 -0.10715582 -0.008893754
0.047084942 0.0753772 -0.0038259483 -0.0125083765 0.022600573 0.012542734 -0.04542119 0.05744917
0.010866503 0.15059477 0.11358235 -0.0262147 0.05818903 0.018530132 0.14024223 0.16549185
0.026554413 0.09489243 0.014131435 0.00018974462 -0.07471876 -0.04423691 -0.12545703 0.0058024144
-0.08631679 -0.01631861 -0.022951417 0.0658679 0.017265104 -0.0072876 -0.12406621 -0.09356923
0.0025874227 -0.0410364 0.028898884 0.15147163 -0.08950206 -0.083757594 -0.002112371 0.05958395
0.043114945 0.12914975 0.10106837 -0.0011728297 -0.03396095 -0.076834776 0.00830766 0.006249068
0.036447875 0.062140886 0.017094735 -0.041973684 -0.036259007 -0.05352433 -0.047201004 -0.050390244
0.051424645 -0.022525018 -0.0066238143 0.013360396 0.06413537 -0.028798424 -0.020844806 0.12885366

classifier.1.bias f4 [10]
00000000: 34be bd3c 0e3a ff3c feca 3a3d b7cc e0bd
00000010: 835c c3bd a320 ebba 63ed acbc 6ec9 6abb
00000020: bd5d b73d 54f5 af3b
0.023161985 0.031155612 0.045603745 -0.10976546 -0.095391296 -0.0017938804 -0.021109289 -0.0035825628
0.08953426 0.0053698216
